…
wandb: Tracking run with wandb version 0.22.2
wandb: Run data is saved locally in /home/jgryu/workspace/weight_compression/NWC_v2/wandb/run-20260429_164902-5bnvye0p
wandb: Run `wandb offline` to turn off syncing.
wandb: Syncing run gaussian_encR2_decR2_compressai_M16_lmbda32
wandb: ⭐️ View project at https://wandb.ai/jegwang-ryu99-postech/nwc_v2_rd_normnone
wandb: 🚀 View run at https://wandb.ai/jegwang-ryu99-postech/nwc_v2_rd_normnone/runs/5bnvye0p
16:49:05 [INFO] dataset=gaussian train_size=100000 val_size=500 train_std=1.00000 train_mean=0.00000
16:49:05 [INFO] model:
NWCv2Codec(
  (g_a): ResBlockTransform(
    (weight_in): Linear(in_features=16, out_features=512, bias=True)
    (weight_stack): ModuleList(
      (0-1): 2 x Linear_ResBlock(
        (lin_1): Sequential(
          (0): Linear(in_features=512, out_features=512, bias=True)
          (1): LayerNorm((512,), eps=1e-05, elementwise_affine=True)
          (2): ReLU()
        )
      )
    )
    (out): Linear(in_features=512, out_features=16, bias=True)
  )
  (g_s): Linear(in_features=16, out_features=16, bias=False)
  (entropy_bottleneck): EntropyBottleneck(
    (likelihood_lower_bound): LowerBound()
  )
)
16:49:05 [INFO] trainable params: 545,504
16:49:05 [INFO] main optimizer + aux: 1 params
16:49:05 [INFO] model:
NWCv2Codec(
  (g_a): ResBlockTransform(
    (weight_in): Linear(in_features=16, out_features=512, bias=True)
    (weight_stack): ModuleList(
      (0-1): 2 x Linear_ResBlock(
        (lin_1): Sequential(
          (0): Linear(in_features=512, out_features=512, bias=True)
          (1): LayerNorm((512,), eps=1e-05, elementwise_affine=True)
          (2): ReLU()
        )
      )
    )
    (out): Linear(in_features=512, out_features=16, bias=True)
  )
  (g_s): ResBlockTransform(
    (weight_in): Linear(in_features=16, out_features=512, bias=True)
    (weight_stack): ModuleList(
      (0-1): 2 x Linear_ResBlock(
        (lin_1): Sequential(
          (0): Linear(in_features=512, out_features=512, bias=True)
          (1): LayerNorm((512,), eps=1e-05, elementwise_affine=True)
          (2): ReLU()
        )
      )
    )
    (out): Linear(in_features=512, out_features=16, bias=True)
  )
  (entropy_bottleneck): EntropyBottleneck(
    (likelihood_lower_bound): LowerBound()
  )
)
16:49:05 [INFO] trainable params: 1,089,520
16:49:05 [INFO] main optimizer + aux: 1 params
16:49:05 [INFO] resumed from ./checkpoint/rd_sweep_normnone/gaussian_encR2_decLinear_compressai_M16_lmbda32/ckpt_iter8000.pth.tar @ iter 8000 (best.pth.tar will track val/loss from this point)
16:49:06 [INFO] resumed from ./checkpoint/rd_sweep_normnone/gaussian_encR2_decR2_compressai_M16_lmbda128/ckpt_iter8000.pth.tar @ iter 8000 (best.pth.tar will track val/loss from this point)
16:49:06 [INFO] model:
NWCv2Codec(
  (g_a): ResBlockTransform(
    (weight_in): Linear(in_features=16, out_features=512, bias=True)
    (weight_stack): ModuleList(
      (0-1): 2 x Linear_ResBlock(
        (lin_1): Sequential(
          (0): Linear(in_features=512, out_features=512, bias=True)
          (1): LayerNorm((512,), eps=1e-05, elementwise_affine=True)
          (2): ReLU()
        )
      )
    )
    (out): Linear(in_features=512, out_features=16, bias=True)
  )
  (g_s): Linear(in_features=16, out_features=16, bias=False)
  (entropy_bottleneck): EntropyBottleneck(
    (likelihood_lower_bound): LowerBound()
  )
)
16:49:06 [INFO] trainable params: 545,504
16:49:06 [INFO] main optimizer + aux: 1 params
16:49:06 [INFO] model:
NWCv2Codec(
  (g_a): ResBlockTransform(
    (weight_in): Linear(in_features=16, out_features=512, bias=True)
    (weight_stack): ModuleList(
      (0-1): 2 x Linear_ResBlock(
        (lin_1): Sequential(
          (0): Linear(in_features=512, out_features=512, bias=True)
          (1): LayerNorm((512,), eps=1e-05, elementwise_affine=True)
          (2): ReLU()
        )
      )
    )
    (out): Linear(in_features=512, out_features=16, bias=True)
  )
  (g_s): ResBlockTransform(
    (weight_in): Linear(in_features=16, out_features=512, bias=True)
    (weight_stack): ModuleList(
      (0-1): 2 x Linear_ResBlock(
        (lin_1): Sequential(
          (0): Linear(in_features=512, out_features=512, bias=True)
          (1): LayerNorm((512,), eps=1e-05, elementwise_affine=True)
          (2): ReLU()
        )
      )
    )
    (out): Linear(in_features=512, out_features=16, bias=True)
  )
  (entropy_bottleneck): EntropyBottleneck(
    (likelihood_lower_bound): LowerBound()
  )
)
16:49:06 [INFO] trainable params: 1,089,520
16:49:06 [INFO] main optimizer + aux: 1 params
16:49:06 [INFO] resumed from ./checkpoint/rd_sweep_normnone/gaussian_encR2_decR2_compressai_M16_lmbda32/ckpt_iter8000.pth.tar @ iter 8000 (best.pth.tar will track val/loss from this point)
…
24, 16])
train Weight: torch.Size([425484, 1024, 16]) val: torch.Size([500, 1024, 16])
---- Dataset_stats (no normalize, raw) ----
{'train': {'mean': -4.7134767555689905e-06,
           'mean_channel': None,
           'std': 0.012529167346656322,
           'std_channel': None},
 'val': {'mean': -5.413502549345139e-06,
         'mean_channel': None,
         'std': 0.012167095206677914,
         'std_channel': None}}
17:37:47 [INFO] dataset=llama8b train_size=425484 val_size=500 train_std=0.01253 train_mean=-0.00000
17:37:47 [INFO] model:
NWCv2Codec(
  (g_a): ResBlockTransform(
    (weight_in): Linear(in_features=16, out_features=512, bias=True)
    (weight_stack): ModuleList(
      (0-1): 2 x Linear_ResBlock(
        (lin_1): Sequential(
          (0): Linear(in_features=512, out_features=512, bias=True)
          (1): LayerNorm((512,), eps=1e-05, elementwise_affine=True)
          (2): ReLU()
        )
      )
    )
    (out): Linear(in_features=512, out_features=16, bias=True)
  )
  (g_s): Linear(in_features=16, out_features=16, bias=False)
  (entropy_bottleneck): EntropyBottleneck(
    (likelihood_lower_bound): LowerBound()
  )
)
17:37:47 [INFO] trainable params: 545,504
17:37:47 [INFO] main optimizer + aux: 1 params
17:37:47 [INFO] resumed from ./checkpoint/rd_sweep_normnone/llama8b_encR2_decLinear_compressai_M16_lmbda32/ckpt_iter8000.pth.tar @ iter 8000 (best.pth.tar will track val/loss from this point)
…
