…
wandb: Run data is saved locally in /home/jgryu/workspace/weight_compression/NWC_v2/wandb/run-20260506_103046-g1e6rhbw
wandb: Run `wandb offline` to turn off syncing.
wandb: Syncing run llama8b_encR2_decR2_compressai_M16_lmbda128
wandb: ⭐️ View project at https://wandb.ai/jegwang-ryu99-postech/nwc_v2_rd_normnone
wandb: 🚀 View run at https://wandb.ai/jegwang-ryu99-postech/nwc_v2_rd_normnone/runs/g1e6rhbw
Loading checkpoint shards:   0%|          | 0/7 [00:00<?, ?it/s]10:30:48 [INFO] dataset=gaussian train_size=100000 val_size=500 train_std=1.00000 train_mean=0.00000
10:30:48 [INFO] model:
NWCv2Codec(
  (g_a): ResBlockTransform(
    (weight_in): Linear(in_features=16, out_features=512, bias=True)
    (weight_stack): ModuleList(
      (0-1): 2 x Linear_ResBlock(
        (lin_1): Sequential(
          (0): Linear(in_features=512, out_features=512, bias=True)
          (1): LayerNorm((512,), eps=1e-05, elementwise_affine=True)
          (2): ReLU()
        )
      )
    )
    (out): Linear(in_features=512, out_features=16, bias=True)
  )
  (g_s): ResBlockTransform(
    (weight_in): Linear(in_features=16, out_features=512, bias=True)
    (weight_stack): ModuleList(
      (0-1): 2 x Linear_ResBlock(
        (lin_1): Sequential(
          (0): Linear(in_features=512, out_features=512, bias=True)
          (1): LayerNorm((512,), eps=1e-05, elementwise_affine=True)
          (2): ReLU()
        )
      )
    )
    (out): Linear(in_features=512, out_features=16, bias=True)
  )
  (entropy_bottleneck): EntropyBottleneck(
    (likelihood_lower_bound): LowerBound()
  )
)
10:30:48 [INFO] trainable params: 1,089,520
10:30:48 [INFO] main optimizer + aux: 1 params
Loading checkpoint shards:  14%|█▍        | 1/7 [00:00<00:01,  4.45it/s]Loading checkpoint shards:   0%|          | 0/7 [00:00<?, ?it/s]10:30:48 [INFO] model:
NWCv2Codec(
  (g_a): ResBlockTransform(
    (weight_in): Linear(in_features=16, out_features=512, bias=True)
    (weight_stack): ModuleList(
      (0-1): 2 x Linear_ResBlock(
        (lin_1): Sequential(
          (0): Linear(in_features=512, out_features=512, bias=True)
          (1): LayerNorm((512,), eps=1e-05, elementwise_affine=True)
          (2): ReLU()
        )
      )
    )
    (out): Linear(in_features=512, out_features=16, bias=True)
  )
  (g_s): ResBlockTransform(
    (weight_in): Linear(in_features=16, out_features=512, bias=True)
    (weight_stack): ModuleList(
      (0-1): 2 x Linear_ResBlock(
        (lin_1): Sequential(
          (0): Linear(in_features=512, out_features=512, bias=True)
          (1): LayerNorm((512,), eps=1e-05, elementwise_affine=True)
          (2): ReLU()
        )
      )
    )
    (out): Linear(in_features=512, out_features=16, bias=True)
  )
  (entropy_bottleneck): EntropyBottleneck(
    (likelihood_lower_bound): LowerBound()
  )
)
10:30:48 [INFO] trainable params: 1,089,520
10:30:48 [INFO] main optimizer + aux: 1 params
Loading checkpoint shards:  29%|██▊       | 2/7 [00:00<00:00,  5.05it/s]Loading checkpoint shards:  14%|█▍        | 1/7 [00:00<00:01,  5.54it/s]Loading checkpoint sh
…
weight total shape (no normalize): torch.Size([425984, 1024, 16])
train Weight: torch.Size([425484, 1024, 16]) val: torch.Size([500, 1024, 16])
---- Dataset_stats (no normalize, raw) ----
{'train': {'mean': -4.7134767555689905e-06,
           'mean_channel': None,
           'std': 0.012529167346656322,
           'std_channel': None},
 'val': {'mean': -5.413502549345139e-06,
         'mean_channel': None,
         'std': 0.012167095206677914,
         'std_channel': None}}
10:31:16 [INFO] dataset=llama8b train_size=425484 val_size=500 train_std=0.01253 train_mean=-0.00000
10:31:16 [INFO] model:
NWCv2Codec(
  (g_a): ResBlockTransform(
    (weight_in): Linear(in_features=16, out_features=512, bias=True)
    (weight_stack): ModuleList(
      (0-1): 2 x Linear_ResBlock(
        (lin_1): Sequential(
          (0): Linear(in_features=512, out_features=512, bias=True)
          (1): LayerNorm((512,), eps=1e-05, elementwise_affine=True)
          (2): ReLU()
        )
      )
    )
    (out): Linear(in_features=512, out_features=16, bias=True)
  )
  (g_s): ResBlockTransform(
    (weight_in): Linear(in_features=16, out_features=512, bias=True)
    (weight_stack): ModuleList(
      (0-1): 2 x Linear_ResBlock(
        (lin_1): Sequential(
          (0): Linear(in_features=512, out_features=512, bias=True)
          (1): LayerNorm((512,), eps=1e-05, elementwise_affine=True)
          (2): ReLU()
        )
      )
    )
    (out): Linear(in_features=512, out_features=16, bias=True)
  )
  (entropy_bottleneck): EntropyBottleneck(
    (likelihood_lower_bound): LowerBound()
  )
)
10:31:16 [INFO] trainable params: 1,089,520
10:31:16 [INFO] main optimizer + aux: 1 params
10:31:18 [INFO] iter 1/20000 loss=182.52632 recon=1.38389 bpp=5.38796 aux=659.17761 (0.5 it/s)
weight total shape (no normalize): torch.Size([425984, 1024, 16])
train Weight: torch.Size([425484, 1024, 16]) val: torch.Size([500, 1024, 16])
…
