…
wandb: Run data is saved locally in /home/jgryu/workspace/weight_compression/NWC_v2/wandb/run-20260504_162632-q8abmn9m
wandb: Run `wandb offline` to turn off syncing.
wandb: Syncing run gaussian_encR2_decLinear_compressai_M16_lmbda32_sharedEB
wandb: ⭐️ View project at https://wandb.ai/jegwang-ryu99-postech/nwc_v2_rd_shared_eb
wandb: 🚀 View run at https://wandb.ai/jegwang-ryu99-postech/nwc_v2_rd_shared_eb/runs/q8abmn9m
16:26:36 [INFO] dataset=gaussian train_size=100000 val_size=500 train_std=1.00000 train_mean=0.00000
16:26:36 [INFO] model:
NWCv2Codec(
  (g_a): ResBlockTransform(
    (weight_in): Linear(in_features=16, out_features=512, bias=True)
    (weight_stack): ModuleList(
      (0-1): 2 x Linear_ResBlock(
        (lin_1): Sequential(
          (0): Linear(in_features=512, out_features=512, bias=True)
          (1): LayerNorm((512,), eps=1e-05, elementwise_affine=True)
          (2): ReLU()
        )
      )
    )
    (out): Linear(in_features=512, out_features=16, bias=True)
  )
  (g_s): Linear(in_features=16, out_features=16, bias=False)
  (entropy_bottleneck): EntropyBottleneck(
    (likelihood_lower_bound): LowerBound()
  )
)
16:26:36 [INFO] trainable params: 544,589
16:26:36 [INFO] main optimizer + aux: 1 params
16:26:37 [INFO] model:
NWCv2Codec(
  (g_a): ResBlockTransform(
    (weight_in): Linear(in_features=16, out_features=512, bias=True)
    (weight_stack): ModuleList(
      (0-1): 2 x Linear_ResBlock(
        (lin_1): Sequential(
          (0): Linear(in_features=512, out_features=512, bias=True)
          (1): LayerNorm((512,), eps=1e-05, elementwise_affine=True)
          (2): ReLU()
        )
      )
    )
    (out): Linear(in_features=512, out_features=16, bias=True)
  )
  (g_s): Linear(in_features=16, out_features=16, bias=False)
  (entropy_bottleneck): EntropyBottleneck(
    (likelihood_lower_bound): LowerBound()
  )
)
16:26:37 [INFO] trainable params: 544,589
16:26:37 [INFO] main optimizer + aux: 1 params
16:26:37 [INFO] model:
NWCv2Codec(
  (g_a): ResBlockTransform(
    (weight_in): Linear(in_features=16, out_features=512, bias=True)
    (weight_stack): ModuleList(
      (0-1): 2 x Linear_ResBlock(
        (lin_1): Sequential(
          (0): Linear(in_features=512, out_features=512, bias=True)
          (1): LayerNorm((512,), eps=1e-05, elementwise_affine=True)
          (2): ReLU()
        )
      )
    )
    (out): Linear(in_features=512, out_features=16, bias=True)
  )
  (g_s): Linear(in_features=16, out_features=16, bias=False)
  (entropy_bottleneck): EntropyBottleneck(
    (likelihood_lower_bound): LowerBound()
  )
)
16:26:37 [INFO] trainable params: 544,589
16:26:37 [INFO] main optimizer + aux: 1 params
16:26:38 [INFO] iter 1/20000 loss=1178.44202 recon=1.14562 bpp=5.33189 aux=40.97418 (0.6 it/s)
16:26:39 [INFO] iter 1/20000 loss=9390.21289 recon=1.14562 bpp=5.33189 aux=40.97419 (0.5 it/s)
16:26:39 [INFO] iter 1/20000 loss=151.97066 recon=1.14562 bpp=5.33189 aux=40.97418 (0.5 it/s)
16:26:39 [INFO] model:
NWCv2Codec(
  (g_a): ResBlockTransform(
    (weight_in): Linear(in_features=16, out_features=512, bias=True)
    (weight_stack): ModuleList(
      (0-1): 2 x Linear_ResBlock(
        (lin_1): Sequential(
          (0): Linear(in_features=512, out_features=512, bias=True)
          (1): LayerNorm((512,), eps=1e-05, elementwise_affine=True)
          (2): ReLU()
        )
      )
    )
    (out): Linear(in_features=512, out_features=16, bias=True)
  )
  (g_s): Linear(in_features=16, out_features=16, bias=False)
  (entropy_bottleneck): EntropyBottleneck(
    (likelihood_lower_bound): LowerBound()
  )
)
16:26:39 [INFO] trainable params: 544,589
16:26:39 [INFO] main optimizer + aux: 1 params
16:26:42 [INFO] iter 1/20000 loss=41.99158 recon=1.14562 bpp=5.33189 aux=40.97418 (0.5 it/s)
16:30:06 [INFO] iter 1000/20000 loss=5.40841 recon=0.00936 bpp=4.21040 aux=37.39740 (4.8 it/s)
…
wandb: Tracking run with wandb version 0.22.2
wandb: Run data is saved locally in /home/jgryu/workspace/weight_compression/NWC_v2/wandb/run-20260504_181544-9iftw300
wandb: Run `wandb offline` to turn off syncing.
wandb: Syncing run gaussian_encR2_decR2_compressai_M16_lmbda32_sharedEB
wandb: ⭐️ View project at https://wandb.ai/jegwang-ryu99-postech/nwc_v2_rd_shared_eb
wandb: 🚀 View run at https://wandb.ai/jegwang-ryu99-postech/nwc_v2_rd_shared_eb/runs/9iftw300
18:15:46 [INFO] dataset=gaussian train_size=100000 val_size=500 train_std=1.00000 train_mean=0.00000
18:15:49 [INFO] model:
NWCv2Codec(
  (g_a): ResBlockTransform(
    (weight_in): Linear(in_features=16, out_features=512, bias=True)
    (weight_stack): ModuleList(
      (0-1): 2 x Linear_ResBlock(
        (lin_1): Sequential(
          (0): Linear(in_features=512, out_features=512, bias=True)
          (1): LayerNorm((512,), eps=1e-05, elementwise_affine=True)
          (2): ReLU()
        )
      )
    )
    (out): Linear(in_features=512, out_features=16, bias=True)
  )
  (g_s): ResBlockTransform(
    (weight_in): Linear(in_features=16, out_features=512, bias=True)
    (weight_stack): ModuleList(
      (0-1): 2 x Linear_ResBlock(
        (lin_1): Sequential(
          (0): Linear(in_features=512, out_features=512, bias=True)
          (1): LayerNorm((512,), eps=1e-05, elementwise_affine=True)
          (2): ReLU()
        )
      )
    )
    (out): Linear(in_features=512, out_features=16, bias=True)
  )
  (entropy_bottleneck): EntropyBottleneck(
    (likelihood_lower_bound): LowerBound()
  )
)
18:15:49 [INFO] trainable params: 1,088,605
18:15:49 [INFO] main optimizer + aux: 1 params
18:15:52 [INFO] iter 1/20000 loss=60.41949 recon=1.72036 bpp=5.36790 aux=41.18491 (0.3 it/s)
18:16:01 [INFO] iter 20000/20000 loss=4.71084 recon=0.00563 bpp=3.98971 aux=0.00580 (17.2 it/s)
…
