…
wandb: Syncing run gaussian_encR2_decLinear_compressai_M16_lmbda8192
wandb: ⭐️ View project at https://wandb.ai/jegwang-ryu99-postech/nwc_v2_rd_normnone
wandb: 🚀 View run at https://wandb.ai/jegwang-ryu99-postech/nwc_v2_rd_normnone/runs/lbwz38id
11:11:22 [INFO] dataset=gaussian train_size=100000 val_size=500 train_std=1.00000 train_mean=0.00000
11:11:22 [INFO] dataset=gaussian train_size=100000 val_size=500 train_std=1.00000 train_mean=0.00000
11:11:22 [INFO] dataset=gaussian train_size=100000 val_size=500 train_std=1.00000 train_mean=0.00000
11:11:23 [INFO] model:
NWCv2Codec(
  (g_a): ResBlockTransform(
    (weight_in): Linear(in_features=16, out_features=512, bias=True)
    (weight_stack): ModuleList(
      (0-1): 2 x Linear_ResBlock(
        (lin_1): Sequential(
          (0): Linear(in_features=512, out_features=512, bias=True)
          (1): LayerNorm((512,), eps=1e-05, elementwise_affine=True)
          (2): ReLU()
        )
      )
    )
    (out): Linear(in_features=512, out_features=16, bias=True)
  )
  (g_s): Linear(in_features=16, out_features=16, bias=False)
  (entropy_bottleneck): EntropyBottleneck(
    (likelihood_lower_bound): LowerBound()
  )
)
11:11:23 [INFO] trainable params: 545,504
11:11:23 [INFO] main optimizer + aux: 1 params
11:11:24 [INFO] model:
NWCv2Codec(
  (g_a): ResBlockTransform(
    (weight_in): Linear(in_features=16, out_features=512, bias=True)
    (weight_stack): ModuleList(
      (0-1): 2 x Linear_ResBlock(
        (lin_1): Sequential(
          (0): Linear(in_features=512, out_features=512, bias=True)
          (1): LayerNorm((512,), eps=1e-05, elementwise_affine=True)
          (2): ReLU()
        )
      )
    )
    (out): Linear(in_features=512, out_features=16, bias=True)
  )
  (g_s): Linear(in_features=16, out_features=16, bias=False)
  (entropy_bottleneck): EntropyBottleneck(
    (likelihood_lower_bound): LowerBound()
  )
)
11:11:24 [INFO] trainable params: 545,504
11:11:24 [INFO] main optimizer + aux: 1 params
11:11:24 [INFO] model:
NWCv2Codec(
  (g_a): ResBlockTransform(
    (weight_in): Linear(in_features=16, out_features=512, bias=True)
    (weight_stack): ModuleList(
      (0-1): 2 x Linear_ResBlock(
        (lin_1): Sequential(
          (0): Linear(in_features=512, out_features=512, bias=True)
          (1): LayerNorm((512,), eps=1e-05, elementwise_affine=True)
          (2): ReLU()
        )
      )
    )
    (out): Linear(in_features=512, out_features=16, bias=True)
  )
  (g_s): Linear(in_features=16, out_features=16, bias=False)
  (entropy_bottleneck): EntropyBottleneck(
    (likelihood_lower_bound): LowerBound()
  )
)
11:11:24 [INFO] trainable params: 545,504
11:11:24 [INFO] main optimizer + aux: 1 params
11:11:25 [INFO] model:
NWCv2Codec(
  (g_a): ResBlockTransform(
    (weight_in): Linear(in_features=16, out_features=512, bias=True)
    (weight_stack): ModuleList(
      (0-1): 2 x Linear_ResBlock(
        (lin_1): Sequential(
          (0): Linear(in_features=512, out_features=512, bias=True)
          (1): LayerNorm((512,), eps=1e-05, elementwise_affine=True)
          (2): ReLU()
        )
      )
    )
    (out): Linear(in_features=512, out_features=16, bias=True)
  )
  (g_s): Linear(in_features=16, out_features=16, bias=False)
  (entropy_bottleneck): EntropyBottleneck(
    (likelihood_lower_bound): LowerBound()
  )
)
11:11:25 [INFO] trainable params: 545,504
11:11:25 [INFO] main optimizer + aux: 1 params
11:11:25 [INFO] iter 1/20000 loss=1178.72754 recon=1.14584 bpp=5.39115 aux=659.21179 (0.6 it/s)
11:11:26 [INFO] iter 1/20000 loss=42.05791 recon=1.14584 bpp=5.39115 aux=659.21173 (0.6 it/s)
…
24, 16])
train Weight: torch.Size([425484, 1024, 16]) val: torch.Size([500, 1024, 16])
---- Dataset_stats (no normalize, raw) ----
{'train': {'mean': -4.7134767555689905e-06,
           'mean_channel': None,
           'std': 0.012529167346656322,
           'std_channel': None},
 'val': {'mean': -5.413502549345139e-06,
         'mean_channel': None,
         'std': 0.012167095206677914,
         'std_channel': None}}
11:43:37 [INFO] dataset=llama8b train_size=425484 val_size=500 train_std=0.01253 train_mean=-0.00000
11:43:37 [INFO] model:
NWCv2Codec(
  (g_a): ResBlockTransform(
    (weight_in): Linear(in_features=16, out_features=512, bias=True)
    (weight_stack): ModuleList(
      (0-1): 2 x Linear_ResBlock(
        (lin_1): Sequential(
          (0): Linear(in_features=512, out_features=512, bias=True)
          (1): LayerNorm((512,), eps=1e-05, elementwise_affine=True)
          (2): ReLU()
        )
      )
    )
    (out): Linear(in_features=512, out_features=16, bias=True)
  )
  (g_s): Linear(in_features=16, out_features=16, bias=False)
  (entropy_bottleneck): EntropyBottleneck(
    (likelihood_lower_bound): LowerBound()
  )
)
11:43:37 [INFO] trainable params: 545,504
11:43:37 [INFO] main optimizer + aux: 1 params
layers:  38%|███▊      | 12/32 [00:09<00:12,  1.57it/s]layers:  41%|████      | 13/32 [00:09<00:11,  1.60it/s]layers:  44%|████▍     | 14/32 [00:10<00:11,  1.61it/s]layers:  47%|████▋     | 15/32 [00:11<00:10,  1.61it/s]11:43:40 [INFO] iter 1/20000 loss=44.11884 recon=1.20957 bpp=5.41260 aux=660.59509 (0.4 it/s)
…
wandb: Tracking run with wandb version 0.22.2
wandb: Run data is saved locally in /home/jgryu/workspace/weight_compression/NWC_v2/wandb/run-20260429_143004-uwcmxxua
wandb: Run `wandb offline` to turn off syncing.
wandb: Syncing run gaussian_encR2_decR2_compressai_M16_lmbda32
wandb: ⭐️ View project at https://wandb.ai/jegwang-ryu99-postech/nwc_v2_rd_normnone
wandb: 🚀 View run at https://wandb.ai/jegwang-ryu99-postech/nwc_v2_rd_normnone/runs/uwcmxxua
14:30:06 [INFO] dataset=gaussian train_size=100000 val_size=500 train_std=1.00000 train_mean=0.00000
14:30:07 [INFO] model:
NWCv2Codec(
  (g_a): ResBlockTransform(
    (weight_in): Linear(in_features=16, out_features=512, bias=True)
    (weight_stack): ModuleList(
      (0-1): 2 x Linear_ResBlock(
        (lin_1): Sequential(
          (0): Linear(in_features=512, out_features=512, bias=True)
          (1): LayerNorm((512,), eps=1e-05, elementwise_affine=True)
          (2): ReLU()
        )
      )
    )
    (out): Linear(in_features=512, out_features=16, bias=True)
  )
  (g_s): ResBlockTransform(
    (weight_in): Linear(in_features=16, out_features=512, bias=True)
    (weight_stack): ModuleList(
      (0-1): 2 x Linear_ResBlock(
        (lin_1): Sequential(
          (0): Linear(in_features=512, out_features=512, bias=True)
          (1): LayerNorm((512,), eps=1e-05, elementwise_affine=True)
          (2): ReLU()
        )
      )
    )
    (out): Linear(in_features=512, out_features=16, bias=True)
  )
  (entropy_bottleneck): EntropyBottleneck(
    (likelihood_lower_bound): LowerBound()
  )
)
14:30:07 [INFO] trainable params: 1,089,520
14:30:07 [INFO] main optimizer + aux: 1 params
14:30:08 [INFO] iter 1/20000 loss=60.43674 recon=1.72073 bpp=5.37339 aux=658.54138 (0.9 it/s)
weight total shape (no normalize): torch.Size([425984, 1024, 16])
train Weight: torch.Size([425484, 1024, 16]) val: torch.Size([500, 1024, 16])
…
