…
weight total shape (no normalize): torch.Size([425984, 1024, 16])
train Weight: torch.Size([425484, 1024, 16]) val: torch.Size([500, 1024, 16])
---- Dataset_stats (no normalize, raw) ----
{'train': {'mean': -4.7134767555689905e-06,
           'mean_channel': None,
           'std': 0.012529167346656322,
           'std_channel': None},
 'val': {'mean': -5.413502549345139e-06,
         'mean_channel': None,
         'std': 0.012167095206677914,
         'std_channel': None}}
19:16:24 [INFO] dataset=llama8b train_size=425484 val_size=500 train_std=0.01253 train_mean=-0.00000
19:16:24 [INFO] model:
NWCv2Codec(
  (g_a): ResBlockTransform(
    (weight_in): Linear(in_features=16, out_features=512, bias=True)
    (weight_stack): ModuleList(
      (0-1): 2 x Linear_ResBlock(
        (lin_1): Sequential(
          (0): Linear(in_features=512, out_features=512, bias=True)
          (1): LayerNorm((512,), eps=1e-05, elementwise_affine=True)
          (2): ReLU()
        )
      )
    )
    (out): Linear(in_features=512, out_features=16, bias=True)
  )
  (g_s): Linear(in_features=16, out_features=16, bias=False)
  (entropy_bottleneck): EntropyBottleneck(
    (likelihood_lower_bound): LowerBound()
  )
)
19:16:24 [INFO] trainable params: 544,589
19:16:24 [INFO] main optimizer + aux: 1 params
weight total shape (no normalize): torch.Size([425984, 1024, 16])
train Weight: torch.Size([425484, 1024, 16]) val: torch.Size([500, 1024, 16])
---- Dataset_stats (no normalize, raw) ----
{'train': {'mean': -4.7134767555689905e-06,
           'mean_channel': None,
           'std': 0.012529167346656322,
           'std_channel': None},
 'val': {'mean': -5.413502549345139e-06,
         'mean_channel': None,
         'std': 0.012167095206677914,
         'std_channel': None}}
19:16:25 [INFO] dataset=llama8b train_size=425484 val_size=500 train_std=0.01253 train_mean=-0.00000
19:16:25 [INFO] model:
NWCv2Codec(
  (g_a): ResBlockTransform(
    (weight_in): Linear(in_features=16, out_features=512, bias=True)
    (weight_stack): ModuleList(
      (0-1): 2 x Linear_ResBlock(
        (lin_1): Sequential(
          (0): Linear(in_features=512, out_features=512, bias=True)
          (1): LayerNorm((512,), eps=1e-05, elementwise_affine=True)
          (2): ReLU()
        )
      )
    )
    (out): Linear(in_features=512, out_features=16, bias=True)
  )
  (g_s): Linear(in_features=16, out_features=16, bias=False)
  (entropy_bottleneck): EntropyBottleneck(
    (likelihood_lower_bound): LowerBound()
  )
)
19:16:25 [INFO] trainable params: 544,589
19:16:25 [INFO] main optimizer + aux: 1 params
weight total shape (no normalize): torch.Size([425984, 1024, 16])
train Weight: torch.Size([425484, 1024, 16]) val: torch.Size([500, 1024, 16])
---- Dataset_stats (no normalize, raw) ----
{'train': {'mean': -4.7134767555689905e-06,
           'mean_channel': None,
           'std': 0.012529167346656322,
           'std_channel': None},
 'val': {'mean': -5.413502549345139e-06,
         'mean_channel': None,
         'std': 0.012167095206677914,
         'std_channel': None}}
19:16:26 [INFO] dataset=llama8b train_size=425484 val_size=500 train_std=0.01253 train_mean=-0.00000
19:16:26 [INFO] model:
NWCv2Codec(
  (g_a): ResBlockTransform(
    (weight_in): Linear(in_features=16, out_features=512, bias=True)
    (weight_stack): ModuleList(
      (0-1): 2 x Linear_ResBlock(
        (lin_1): Sequential(
          (0): Linear(in_features=512, out_features=512, bias=True)
          (1): LayerNorm((512,), eps=1e-05, elementwise_affine=True)
          (2): ReLU()
        )
      )
    )
    (out): Linear(in_features=512, out_features=16, bias=True)
  )
  (g_s): Linear(in_features=16, out_features=16, bias=False)
  (entropy_bottleneck): EntropyBottleneck(
    (likelihood_lower_bound): LowerBound()
  )
)
19:16:26 [INFO] trainable params: 544,589
19:16:26 [INFO] main optimizer + aux: 1 params
19:16:26 [INFO] iter 1/20000 loss=10074.37012 recon=1.22913 bpp=5.33174 aux=41.00303 (0.5 it/s)
weight total shape (no normalize): torch.Size([425984, 1024, 16])
train Weight: torch.Size([425484, 1024, 16]) val: torch.Size([500, 1024, 16])
---- Dataset_stats (no normalize, raw) ----
{'train': {'mean': -4.7134767555689905e-06,
           'mean_channel': None,
           'std': 0.012529167346656322,
           'std_channel': None},
 'val': {'mean': -5.413502549345139e-06,
         'mean_channel': None,
         'std': 0.012167095206677914,
         'std_channel': None}}
19:16:27 [INFO] dataset=llama8b train_size=425484 val_size=500 train_std=0.01253 train_mean=-0.00000
19:16:27 [INFO] model:
NWCv2Codec(
  (g_a): ResBlockTransform(
    (weight_in): Linear(in_features=16, out_features=512, bias=True)
    (weight_stack): ModuleList(
      (0-1): 2 x Linear_ResBlock(
        (lin_1): Sequential(
          (0): Linear(in_features=512, out_features=512, bias=True)
          (1): LayerNorm((512,), eps=1e-05, elementwise_affine=True)
          (2): ReLU()
        )
      )
    )
    (out): Linear(in_features=512, out_features=16, bias=True)
  )
  (g_s): Linear(in_features=16, out_features=16, bias=False)
  (entropy_bottleneck): EntropyBottleneck(
    (likelihood_lower_bound): LowerBound()
  )
)
19:16:27 [INFO] trainable params: 544,589
19:16:27 [INFO] main optimizer + aux: 1 params
19:16:28 [INFO] iter 1/20000 loss=162.66046 recon=1.22913 bpp=5.33174 aux=41.00302 (0.4 it/s)
19:16:28 [INFO] iter 1/20000 loss=1263.96155 recon=1.22913 bpp=5.33174 aux=41.00302 (0.5 it/s)
…
weight total shape (no normalize): torch.Size([425984, 1024, 16])
train Weight: torch.Size([425484, 1024, 16]) val: torch.Size([500, 1024, 16])
---- Dataset_stats (no normalize, raw) ----
{'train': {'mean': -4.7134767555689905e-06,
           'mean_channel': None,
           'std': 0.012529167346656322,
           'std_channel': None},
 'val': {'mean': -5.413502549345139e-06,
         'mean_channel': None,
         'std': 0.012167095206677914,
         'std_channel': None}}
21:07:03 [INFO] dataset=llama8b train_size=425484 val_size=500 train_std=0.01253 train_mean=-0.00000
21:07:03 [INFO] model:
NWCv2Codec(
  (g_a): ResBlockTransform(
    (weight_in): Linear(in_features=16, out_features=512, bias=True)
    (weight_stack): ModuleList(
      (0-1): 2 x Linear_ResBlock(
        (lin_1): Sequential(
          (0): Linear(in_features=512, out_features=512, bias=True)
          (1): LayerNorm((512,), eps=1e-05, elementwise_affine=True)
          (2): ReLU()
        )
      )
    )
    (out): Linear(in_features=512, out_features=16, bias=True)
  )
  (g_s): ResBlockTransform(
    (weight_in): Linear(in_features=16, out_features=512, bias=True)
    (weight_stack): ModuleList(
      (0-1): 2 x Linear_ResBlock(
        (lin_1): Sequential(
          (0): Linear(in_features=512, out_features=512, bias=True)
          (1): LayerNorm((512,), eps=1e-05, elementwise_affine=True)
          (2): ReLU()
        )
      )
    )
    (out): Linear(in_features=512, out_features=16, bias=True)
  )
  (entropy_bottleneck): EntropyBottleneck(
    (likelihood_lower_bound): LowerBound()
  )
)
21:07:03 [INFO] trainable params: 1,088,605
21:07:03 [INFO] main optimizer + aux: 1 params
/opt/conda/lib/python3.10/site-packages/pydantic/_internal/_generate_schema.py:2249: UnsupportedFieldAttributeWarning: The 'repr' attribute with value False was provide
…
weight total shape (no normalize): torch.Size([425984, 1024, 16])
train Weight: torch.Size([425484, 1024, 16]) val: torch.Size([500, 1024, 16])
---- Dataset_stats (no normalize, raw) ----
{'train': {'mean': -4.7134767555689905e-06,
           'mean_channel': None,
           'std': 0.012529167346656322,
           'std_channel': None},
 'val': {'mean': -5.413502549345139e-06,
         'mean_channel': None,
         'std': 0.012167095206677914,
         'std_channel': None}}
21:08:05 [INFO] dataset=llama8b train_size=425484 val_size=500 train_std=0.01253 train_mean=-0.00000
21:08:05 [INFO] model:
NWCv2Codec(
  (g_a): ResBlockTransform(
    (weight_in): Linear(in_features=16, out_features=512, bias=True)
    (weight_stack): ModuleList(
      (0-1): 2 x Linear_ResBlock(
        (lin_1): Sequential(
          (0): Linear(in_features=512, out_features=512, bias=True)
          (1): LayerNorm((512,), eps=1e-05, elementwise_affine=True)
          (2): ReLU()
        )
      )
    )
    (out): Linear(in_features=512, out_features=16, bias=True)
  )
  (g_s): ResBlockTransform(
    (weight_in): Linear(in_features=16, out_features=512, bias=True)
    (weight_stack): ModuleList(
      (0-1): 2 x Linear_ResBlock(
        (lin_1): Sequential(
          (0): Linear(in_features=512, out_features=512, bias=True)
          (1): LayerNorm((512,), eps=1e-05, elementwise_affine=True)
          (2): ReLU()
        )
      )
    )
    (out): Linear(in_features=512, out_features=16, bias=True)
  )
  (entropy_bottleneck): EntropyBottleneck(
    (likelihood_lower_bound): LowerBound()
  )
)
21:08:05 [INFO] trainable params: 1,088,605
21:08:05 [INFO] main optimizer + aux: 1 params
weight total shape (no normalize): torch.Size([425984, 1024, 16])
train Weight: torch.Size([425484, 1024, 16]) val: torch.Size([500, 1024, 16])
---- Dataset_stats (no normalize, raw) ----
{'train': {'mean': -4.7134767555689905e-06,
           'mean_channel': None,
           'std': 0.012529167346656322,
           'std_channel': None},
 'val': {'mean': -5.413502549345139e-06,
         'mean_channel': None,
         'std': 0.012167095206677914,
         'std_channel': None}}
21:08:06 [INFO] dataset=llama8b train_size=425484 val_size=500 train_std=0.01253 train_mean=-0.00000
21:08:06 [INFO] model:
NWCv2Codec(
  (g_a): ResBlockTransform(
    (weight_in): Linear(in_features=16, out_features=512, bias=True)
    (weight_stack): ModuleList(
      (0-1): 2 x Linear_ResBlock(
        (lin_1): Sequential(
          (0): Linear(in_features=512, out_features=512, bias=True)
          (1): LayerNorm((512,), eps=1e-05, elementwise_affine=True)
          (2): ReLU()
        )
      )
    )
    (out): Linear(in_features=512, out_features=16, bias=True)
  )
  (g_s): ResBlockTransform(
    (weight_in): Linear(in_features=16, out_features=512, bias=True)
    (weight_stack): ModuleList(
      (0-1): 2 x Linear_ResBlock(
        (lin_1): Sequential(
          (0): Linear(in_features=512, out_features=512, bias=True)
          (1): LayerNorm((512,), eps=1e-05, elementwise_affine=True)
          (2): ReLU()
        )
      )
    )
    (out): Linear(in_features=512, out_features=16, bias=True)
  )
  (entropy_bottleneck): EntropyBottleneck(
    (likelihood_lower_bound): LowerBound()
  )
)
21:08:06 [INFO] trainable params: 1,088,605
21:08:06 [INFO] main optimizer + aux: 1 params
21:08:08 [INFO] iter 1/20000 loss=11254.83691 recon=1.37323 bpp=5.33153 aux=41.00086 (0.5 it/s)
21:08:08 [INFO] iter 1/20000 loss=1411.51978 recon=1.37323 bpp=5.33153 aux=41.00085 (0.4 it/s)
…
